…
 98%|█████████████████████████████████████████▏| 49/50 [00:00<00:00, 135.24it/s]
 88%|██████████████████████████████████████▌     | 7/8 [00:00<00:00, 490.50it/s]
 98%|█████████████████████████████████████████▏| 49/50 [00:00<00:00, 137.75it/s]
 88%|██████████████████████████████████████▌     | 7/8 [00:00<00:00, 490.06it/s]
 98%|█████████████████████████████████████████▏| 49/50 [00:00<00:00, 138.13it/s]
 88%|██████████████████████████████████████▌     | 7/8 [00:00<00:00, 483.62it/s]
ResInf(
  (avg_pool): AdaptiveAvgPool2d(output_size=1)
  (max_pool): AdaptiveMaxPool2d(output_size=1)
  (sharedMLP): Sequential(
    (0): Conv2d(2, 1, kernel_size=(1, 1), stride=(1, 1), bias=False)
    (1): ReLU()
    (2): Conv2d(1, 2, kernel_size=(1, 1), stride=(1, 1), bias=False)
  )
  (encoder_input_layer): Linear(in_features=1, out_features=8, bias=True)
  (positional_encoding_layer): PositionalEncoder(
    (dropout): Dropout(p=0.1, inplace=False)
  )
  (encoder): TransformerEncoder(
    (layers): ModuleList(
      (0): TransformerEncoderLayer(
        (self_attn): MultiheadAttention(
          (out_proj): NonDynamicallyQuantizableLinear(in_features=8, out_features=8, bias=True)
        )
        (linear1): Linear(in_features=8, out_features=8, bias=True)
        (dropout): Dropout(p=0.1, inplace=False)
        (linear2): Linear(in_features=8, out_features=8, bias=True)
        (norm1): LayerNorm((8,), eps=1e-05, elementwise_affine=True)
        (norm2): LayerNorm((8,), eps=1e-05, elementwise_affine=True)
        (dropout1): Dropout(p=0.1, inplace=False)
        (dropout2): Dropout(p=0.1, inplace=False)
      )
    )
  )
  (gcns): ModuleList(
    (0): GCNConv(
      (linear): Linear(in_features=8, out_features=4, bias=True)
      (s_linear): Linear(in_features=8, out_features=4, bias=True)
    )
  )
  (hidden_layers): ModuleList(
    (0): Linear(in_features=4, out_features=4, bias=True)
    (1): Tanh()
  )
  (resi_net_Linear): Linear(in_features=4, out_features=3, bias=True)
  (resi_net_down): Linear(in_features=3, out_features=1, bias=True)
  (pred_linear): Linear(in_features=1, out_features=1, bias=True)
)
Namespace(lr=0.001, weight_decay=1e-05, dropout=0, hidden=2, time_tick=100, gpu=0, seed=2021, T=200.0, operator='norm_adj', epoch=50, train_size=1, valid_size=1, test_size=1, rand_guess=False, layers=1, use='start', type='node', causal=0, K=2, comment='normal', mech=1, asso=0, use_model='resinf', decompo='None', cross=0, save=1, emb_size=4, hidden_layers_num=2, pool_type='virtual', pool_arch='global', trans_layers=1, trans_emb_size=8, n_heads=1, finetune=0, train_type='kfold', threshold=0.5, fold_num=8, use_logitloss=False, use_wandb=True)
…
